XGNN/MUTAG/ckpt.pth (torch_old, 30496 bytes, 10 tensors)

gcns.0.proj.weight f4 [32, 7]
000000 81 11 4e be b4 83 e2 be 21 df 9b 3f 5a 20 b4 be
       -0.20123865 -0.44241107 1.2177469 -0.35180932
000010 2f 9d a2 bd 1a 9f c8 be f2 97 9d be d5 98 08 3e
       -0.07940137 -0.39183885 -0.30779988 0.13339551
000020 c0 70 cb bd 87 b3 23 3d 93 02 28 be f2 6b a4 be
       -0.09933615 0.039966132 -0.16407232 -0.32113606
000030 ef 29 e2 3f ba 7b bc be 6b 76 15 3f 5f fd 69 be
       1.7669047 -0.36813146 0.58383816 -0.2285056
000040 03 08 72 bf bd 89 99 3f 54 c4 aa 3f 97 d7 9a bf
       -0.94543475 1.1995159 1.3341165 -1.2097043
000050 21 7d 9c 3e 6c 88 a1 bd 43 26 3f be 8b ed b5 be
       0.30564216 -0.078873485 -0.1866694 -0.35532793
000060 b5 af a1 be 2e 75 49 40 c7 fa e4 bd 5e 4d 23 40
       -0.31579366 3.147777 -0.111806445 2.551597
000070 9a be b5 bd b2 5c 63 3f ed c2 4d bf 27 59 16 3f
       -0.08874245 0.88813317 -0.8037556 0.58729786
000080 b2 56 b4 bd 87 ed 74 be 56 be a9 bd 85 53 22 bf
       -0.08805598 -0.23918734 -0.08288257 -0.6340869
000090 4c 99 6a bd ae 04 a5 3f 01 6f b5 be 61 bd 4a 3d
       -0.0572751 1.2892053 -0.35436252 0.049497012
0000a0 0d f6 35 3d d0 c1 e0 3c b1 bd df be df e1 2a bf
       0.044424105 0.027436167 -0.4369941 -0.667509
0000b0 3a 6f 1c bf 50 44 1c bf 69 c8 09 3f 25 f1 90 3f
       -0.6110722 -0.61041737 0.53821427 1.1323591
0000c0 6e 89 95 3e 71 e1 ac be 10 2d 9b 3f ad 3d f2 be
       0.29206413 -0.33765748 1.2123127 -0.4731268
0000d0 0a f1 ed be 91 b3 bc be 4f a6 8f 3d 8d c0 dc be
       -0.4647296 -0.36855748 0.07014143 -0.43115655
0000e0 7a 43 a2 3e 39 21 90 3d d5 b7 1a 3f 06 b2 26 bf
       0.31692106 0.07037587 0.60436755 -0.6511539
0000f0 ec 8f 31 3f 14 70 85 be ae b1 1a bf 16 11 33 bf
       0.6936023 -0.2606207 -0.6042737 -0.69947946
000100 bc d9 0d 3f e7 f1 84 be 75 29 9a 3f af 8c 50 be
       0.5541036 -0.25965807 1.2043902 -0.20366167
000110 23 fa 15 be 2b 0f e5 3f 01 d5 18 3f 7a 9f 82 be
       -0.14646201 1.7895254 0.5970002 -0.25512296
000120 bf 05 80 bf d7 70 70 bf b2 bd 8b 3f 39 73 13 bf
       -1.0001754 -0.9392218 1.0917265 -0.5759769
000130 f6 70 cb 3d 14 e5 ad 3d cd a3 56 3f 62 94 64 bf
       0.09933655 0.08490959 0.8384369 -0.89288914
000140 0e a1 07 bf f7 a0 20 bf c3 01 dc 3f 4d c5 2f bb
       -0.52980125 -0.6274561 1.7188038 -0.0026820481
000150 9c 48 38 3f 34 11 53 c0 ad 24 39 bf 88 ee 7f be
       0.71985793 -3.297925 -0.7232159 -0.24993336
000160 a8 57 4e 40 b6 8b 83 bf 91 89 59 40 a3 a1 a3 be
       3.2241 -1.0277011 3.3990214 -0.31959257
000170 08 94 1c 3e 7d 82 37 be 79 83 9a 3f 9f 9c 01 be
       0.15290844 -0.17920871 1.2071372 -0.12657402
000180 f9 ac ae 3f 7e 47 a5 be 4e 31 0a be 12 de b9 be
       1.3646537 -0.32281107 -0.13495371 -0.3630224
000190 43 39 b5 be e8 d8 bb be 0a 97 7b be 60 7a 04 bd
       -0.3539525 -0.36688924 -0.24569336 -0.03234327
0001a0 9c 1c a5 bd 7c ca 88 3e 07 2e 94 bf 57 34 0e 3f
       -0.080620974 0.26716983 -1.1576546 0.55548614
0001b0 0b 8c e4 3f 5d d1 1d 40 1e ae 3d bf 8c 5f bf 3e
       1.7855238 2.4659035 -0.74093807 0.37377584
0001c0 5e 99 38 bf 7a 88 8a 3e 9d 45 c2 3f 6e 7e e6 3e
       -0.7210902 0.27057248 1.5177494 0.45018333
0001d0 9b 11 3a 3b 38 71 56 be 84 84 3c 3c 3f 50 ed 3e
       0.0028391841 -0.20941627 0.011506204 0.46350285
0001e0 aa ac 89 bd 03 10 32 bf a2 09 2a bf c9 01 09 40
       -0.06722386 -0.6955568 -0.6642095 2.140734
0001f0 ac 2e 35 40 66 8f 0f 3e 55 c1 f2 3e b7 39 83 bc
       2.8309736 0.14019546 0.47413126 -0.016018732
000200 06 d6 7d bf f7 e3 5d bf 28 61 db 3f 7a 5f e0 3f
       -0.991547 -0.8667597 1.7139025 1.7529137
000210 5a 91 7d 3f 80 f2 29 3f 4a ea d8 be d5 f2 1b 3f
       0.99049914 0.6638565 -0.42366248 0.6091741
000220 c6 b1 83 bf dc df 7a bf 30 4e d0 bf 29 39 69 bf
       -1.0288627 -0.9799783 -1.6273861 -0.91102844
000230 ab 04 b8 be 79 4b 92 3f e3 20 e2 be a5 df 83 3f
       -0.3594106 1.1429282 -0.44165716 1.0302626
000240 26 f0 c3 be 85 07 0f 3f c5 f8 6f be 09 1e 5a 3f
       -0.38269156 0.5587085 -0.23434742 0.8520208
000250 f0 75 97 bf 07 af 45 be 7f 5c 1a be 33 d3 fd 3f
       -1.1832867 -0.19305049 -0.15074347 1.9830078
000260 14 70 6e be 1e f2 17 3f 64 5d ba be 0a f4 70 3f
       -0.23284942 0.59353817 -0.36399376 0.94122374
000270 49 31 93 be ca 5b 7b be 30 bc c1 bc 0d 30 ad 3e
       -0.2874854 -0.24546733 -0.023649305 0.33825722
000280 3b c8 c3 be 2c be c8 3e c4 c2 af be e0 46 a7 3e
       -0.382387 0.3920759 -0.34328282 0.3267126
000290 36 d9 13 bf 30 7a 1e bf 63 b1 15 bf 87 c2 1b bf
       -0.5775331 -0.61905193 -0.58473796 -0.608437
0002a0 52 45 c6 3e 7d f5 d7 be 0f 87 b7 3e 6a f3 a4 be
       0.38724762 -0.4217948 0.3584523 -0.3221696
0002b0 27 ae 08 40 ba 19 1d 3f 41 7f ae be 5a e7 9b 3e
       2.1356294 0.6136738 -0.34081462 0.30449945
0002c0 17 5a 06 c0 ac da 82 bf ad a5 97 be b5 75 12 40
       -2.0992486 -1.0222983 -0.29618588 2.2884343
0002d0 9e 18 91 bf 90 68 0c 40 54 60 ae be fb d5 a4 3f
       -1.1335638 2.193882 -0.34057868 1.2877802
0002e0 14 8b f7 be 4b f8 f3 be 26 f1 b3 be 57 ca 76 be
       -0.48348296 -0.4765037 -0.3514492 -0.24100624
0002f0 c3 04 de be 1a 2e 1b 3f 4b 89 db be 84 fd d2 3e
       -0.43363008 0.6061722 -0.42878184 0.41209042
000300 c4 97 a0 bf 32 16 ca be 1f ce a1 bf d4 d3 e0 3e
       -1.2546315 -0.3947006 -1.2641028 0.43911612
000310 89 d8 cc bd c2 09 90 3e 9a 89 64 3f 0f ad d9 be
       -0.10002238 0.28132445 0.89272463 -0.42514846
000320 74 bf c4 be ec 6f 87 3d b6 12 b3 be 69 d5 bf be
       -0.38427317 0.06613144 -0.34975213 -0.37467507
000330 1a f8 bc 3f e2 5a 06 bf 6f b0 e2 3e 32 ea ed be
       1.4763215 -0.52482426 0.44275233 -0.4646774
000340 8f 04 85 be ec c3 ef be 6a 55 b3 be 30 b0 ba bd
       -0.2598004 -0.46829164 -0.35026103 -0.09115636
000350 09 cb e5 3d f2 6f 9a be d0 9d 64 bd f2 5e 4c 3e
       0.112203665 -0.30163532 -0.055814564 0.19958094
000360 52 43 76 be 14 4a a7 be fc 6c 49 3f ac 18 a7 3e
       -0.24049118 -0.32673705 0.7868192 0.3263601
000370 76 18 c1 3f a0 99 78 bd 4d 81 df bb 57 c3 c2 be
       1.508559 -0.060693383 -0.006820834 -0.38039657

gcns.0.proj.bias f4 [32]
000000 15 32 25 3e 78 53 14 be 4e b2 a2 3b fd 9b 67 3d
       0.16132386 -0.14484966 0.004965103 0.056545246
000010 44 94 91 3d 6f 7c 04 3e d8 39 e5 3e 3b e5 b0 3e
       0.071083575 0.12938093 0.44770694 0.3454989
000020 4f 70 28 be ec b6 5b 3e db 6e b9 3c f6 5d 5e bd
       -0.16449092 0.21456498 0.022635868 -0.054288827
000030 c2 2d 86 3e 89 7d c2 3d 00 00 00 00 fa dd 1d 3d
       0.26206785 0.094966 0.0 0.03854177
000040 d9 7c fe 3d f8 a0 ce bd d7 df 08 be eb b8 87 3c
       0.124261566 -0.10089296 -0.13366638 0.016567668
000050 d4 60 bb 3e 57 fa 37 be 34 a8 57 3d e5 ff 18 be
       0.36597311 -0.17966591 0.052650645 -0.14941366
000060 67 1f fe bd c4 7d 88 3e 32 66 b2 3e 37 0b 1a bd
       -0.12408333 0.26658452 0.34843594 -0.03760835
000070 f8 08 32 be e0 8d c4 3e ab 49 f8 bc c4 14 59 3d
       -0.17386234 0.38389492 -0.030308565 0.05299832

gcns.1.proj.weight f4 [48, 32]
000000 a7 be 2a 3f 4a 27 0d 40 b5 3f a0 bf 70 87 79 be
       0.6669716 2.205523 -1.2519442 -0.24368072
000010 1f 59 4e bf 4f 18 0c 3f b5 32 03 c0 16 2e 38 c0
       -0.8060474 0.5472459 -2.04997 -2.8778129
000020 7a 08 db 3e 23 20 01 bd b5 c3 79 bf de e4 e9 bf
       0.42779905 -0.03152479 -0.9756425 -1.827297
000030 e6 7f 84 be 7d bf 19 40 00 c3 85 3e e0 9d 84 3e
       -0.2587883 2.4023125 0.26125336 0.259017
000040 58 38 80 3e 9b 5b 3c bf e1 72 f1 be 60 64 b0 3e
       0.25042987 -0.7357728 -0.47157958 0.3445158
000050 db 6d d7 bf ae 2c c2 3e d1 c2 ab 3e 73 45 03 3f
       -1.68304 0.37924713 0.3354707 0.51277846
000060 d2 42 0a 3f b7 c3 99 bf 4a 55 53 c0 ff 83 02 3e
       0.5400821 -1.2012852 -3.3020806 0.12745665
000070 f4 65 59 3f 95 05 bb c0 d2 31 3a 3e f5 5a 9b be
       0.84921193 -5.8444314 0.18183067 -0.30342832
000080 5f a1 3b be 50 c2 a5 bd dd 39 ff 3d 4e 5d 1f be
       -0.18323277 -0.08093703 0.124622084 -0.15562937
000090 7b b2 47 3d ec 32 94 3d a1 06 8c be 54 b9 8b be
       0.048754197 0.07236275 -0.27348807 -0.27289832
0000a0 c6 c4 43 be 0b 32 8e bb 46 dd 85 be d5 11 22 be
       -0.19118032 -0.0043394617 -0.2614538 -0.15827115
0000b0 dc b9 85 be f0 74 8e be 89 ea 14 be 86 62 51 be
       -0.26118362 -0.2782359 -0.14542593 -0.2044774
0000c0 07 ef fd bb a4 42 4e be 9b 53 e1 3d e7 d8 42 bc
       -0.0077494415 -0.20142609 0.110022746 -0.011892534
0000d0 e2 ca ba 3d bd 64 63 be 95 f8 18 be bc 54 5e bd
       0.09120728 -0.22206397 -0.14938577 -0.054280028
0000e0 6c df 3e 3e b6 a8 23 3e 0c 54 c4 bd 80 ef a3 bc
       0.18639916 0.15982327 -0.09586343 -0.020011663
0000f0 90 ef 7b 3e da cb 7a be 2c cb 87 be bb 96 6c 3e
       0.24603105 -0.24491826 -0.26522195 0.23104374
000100 70 78 01 3e b4 94 a3 bd 00 75 53 3e 69 ab 23 3f
       0.126436 -0.07987347 0.206501 0.63933426
000110 bf 98 78 c0 86 db 82 bf 0d 57 c9 bf 3b e4 38 c0
       -3.884323 -1.0223243 -1.5729691 -2.88893
000120 92 07 4b 3e 41 a5 4f be ae 82 87 3e e0 f4 c2 3d
       0.19827107 -0.20277883 0.26466888 0.095193624
000130 f4 76 e4 3e 75 c0 a4 3d b9 94 7c be 69 e2 c1 3e
       0.44622004 0.08044521 -0.24666108 0.3786805
000140 84 f1 90 bf d3 4a cf bc 3c d5 5b 3e 96 8a 92 3e
       -1.1323705 -0.025304234 0.21468061 0.28621358
000150 91 f0 1c c0 02 78 a6 3e c7 11 93 bf ba 45 cb 3e
       -2.452183 0.32513434 -1.14898 0.39701635
000160 59 6a d3 3e ac bc 56 3e 4c d1 62 c0 e1 6c fb 3e
       0.41292074 0.2097041 -3.5440245 0.49106506
000170 a0 ae 4d bf 0f 35 77 c0 72 f8 40 3b 1d 9d f5 bf
       -0.8034458 -3.8626134 0.002944496 -1.9188572
000180 43 97 b9 3e 3b 66 7f 3f f9 60 8b be b5 f7 01 40
       0.36248216 0.99765366 -0.27222422 2.0307438
000190 43 8a 07 3d 49 24 fd be 7f c1 a1 3f 24 0a bb 3e
       0.03309084 -0.49441746 1.2637175 0.36531174
0001a0 8e d4 96 bd e2 d7 88 3e 1d 9b 49 be fd 95 a8 bd
       -0.0736476 0.26727206 -0.19688077 -0.08231733
0001b0 e2 33 f0 3c a1 4f 8c 3f 00 05 af bb 89 21 e6 bd
       0.029321615 1.0961801 -0.005341172 -0.11236865
0001c0 ee 73 42 bf b0 3d 1a 3f d7 1e 78 3e c7 00 88 bd
       -0.75958145 0.6025038 0.24230514 -0.06640773
0001d0 4e df 3c 3e 75 79 b0 3e eb 7d 51 3e 1b 81 ed be
       0.18444559 0.34467664 0.2045819 -0.46387562
0001e0 d9 8b 5a 3e 8f 4b ff bd ce a9 67 bd 95 d3 9b be
       0.2134241 -0.124655835 -0.056558423 -0.30434862
0001f0 f7 8f 56 bf 88 36 d9 be 00 c4 e1 3d be 82 5a bf
       -0.8381342 -0.42424417 0.11023712 -0.85355747
000200 b6 bb fd 3e 0b 3f 55 3f 10 05 76 bf 8a b2 99 be
       0.49557275 0.8329932 -0.96101475 -0.30019027
000210 02 e0 f3 3f 39 b5 23 bf 69 ce 61 3f c8 8e 0c bf
       1.9052737 -0.639484 0.8820558 -0.54905367
000220 78 e1 e6 3e fb d5 9f be ec 52 10 bf 3b 79 86 bf
       0.45093894 -0.31217942 -0.5637653 -1.0505747
000230 c6 e1 3b b9 47 f5 fb 3e e4 59 60 3e 7d 13 16 3f
       -0.00017917817 0.4921057 0.2190929 0.58623487
000240 9d 7d ed bd 69 e4 80 be 35 3f 1b bf 2d aa 09 3f
       -0.115962245 -0.25174263 -0.6064332 0.5377529
000250 14 c3 00 be df 7f da 3d a0 5e 46 bf c5 1c 8c 3e
       -0.12574416 0.10668921 -0.77488136 0.273657
000260 56 8a d3 3e 68 27 77 bf 8a 03 e9 bd 1a 85 2f 3f
       0.4131648 -0.96544504 -0.11377628 0.6856247
000270 7e 2a 5c bd fb 8b 2e be 8d 3a 38 bd 45 15 9e bf
       -0.05375146 -0.17045586 -0.044977713 -1.2350241
000280 25 da f2 3e 21 dd d9 3f 69 a4 73 3e 01 e4 19 be
       0.47432056 1.7020608 0.23793186 -0.15028383
000290 17 1b 49 bf 51 7a 34 bf 4c a0 ee bf 22 b8 59 c0
       -0.7855696 -0.7049914 -1.8642669 -3.4018636
0002a0 2f cc b9 3e 4b f4 3c 3f cf a1 10 3e 44 6f 98 3e
       0.36288592 0.7381026 0.14124225 0.2977239
0002b0 cb 79 f8 3e b9 ad fa 3f d8 74 f8 3d 09 38 8a 3e
       0.4853042 1.9584266 0.12131661 0.26995876
0002c0 cf 77 2c bf 4b ae 61 3d 18 54 1c 3e 1b b8 a4 3e
       -0.67370313 0.05509786 0.15266454 0.3217171
0002d0 97 11 e8 bf 3c 9b df 3e 53 80 08 c0 c2 eb 97 3d
       -1.8130368 0.43673122 -2.1328323 0.07418014
0002e0 c5 63 96 bc c3 47 fe 3c 8b 5f 92 c0 2c b3 73 3e
       -0.01835812 0.031040078 -4.574163 0.23798817
0002f0 95 a2 04 bf c4 cc 50 c0 d7 f5 4e be ec e6 80 bf
       -0.5181058 -3.262498 -0.20210968 -1.0070472
000300 85 55 a1 3f 70 c3 b2 bf 4a 16 6f be 21 70 e0 3e
       1.2604223 -1.3965893 -0.23348346 0.43835548
000310 ee f4 ae bf fd bb 79 3f 3d cf ee be 76 37 4c bf
       -1.3668497 0.9755247 -0.46642485 -0.79772127
000320 57 95 fa 3d 22 f3 12 bf 7b 66 3a 3d 17 66 fc be
       0.122355156 -0.5740224 0.04550789 -0.49296638
000330 d9 8e 3a 3d 90 05 37 bf c4 6c 8a be 31 54 2f 3f
       0.045546386 -0.7149286 -0.27036107 0.6848784
000340 38 fc 8b 3f ff 36 d4 bd 02 64 2e be 03 e2 c2 3d
       1.0936346 -0.10362052 -0.17030337 0.095157646
000350 ff 21 28 bf 15 92 10 3c a7 c1 51 bf 02 8d e3 3e
       -0.65676874 0.008823891 -0.81936115 0.44443518
000360 a4 71 84 3e 62 d5 4b 3e 9f 72 48 bf 57 e3 c7 3e
       0.2586795 0.19905618 -0.782999 0.39040634
000370 a2 49 da 3e 24 a8 5e bf ff 4e ba bd bf 21 cf 3e
       0.42634302 -0.8697531 -0.090970986 0.40455434
000380 7c d8 c1 be e3 23 31 be 19 13 00 bf 92 d7 ae be
       -0.37860477 -0.17298846 -0.5002914 -0.34148842
000390 5a 6b bf 3e e0 3d d1 bf 8c 94 25 3e cc 9e 25 3e
       0.3738659 -1.6347008 0.16169947 0.16173857
0003a0 f4 d6 8e be e3 6d ce 3e bf 4e cf be 50 66 b1 bd
       -0.2789837 0.40318212 -0.40489766 -0.08662093
0003b0 88 a0 86 3e 58 a2 c9 3e 4b 29 83 be e9 08 4a 3e
       0.2629435 0.3938167 -0.25617442 0.19729961
0003c0 f9 b2 98 3f 03 e7 f5 be b7 be 30 bf 7a 31 0f bf
       1.1929618 -0.4802781 -0.6904101 -0.5593487
0003d0 29 3a 10 3e a5 00 34 3e 1f 36 11 3f 51 f5 da 3d
       0.14084686 0.17578371 0.5672321 0.10691322
0003e0 d1 15 80 3e 98 46 71 3e 3f 2f c3 3b e1 bc 44 be
       0.25016645 0.23562086 0.00595656 -0.19212677
0003f0 cb 66 04 bf ca f2 01 3e 20 80 39 be 80 31 c7 3e
       -0.5171935 0.12690273 -0.18115282 0.38904953

gcns.1.proj.bias f4 [48]
000000 1f a1 8a 3e b9 f1 9f bc 72 5f 16 be a9 fe 32 bd
       0.2707605 -0.019524442 -0.14684847 -0.043699894
000010 4b e9 df 3e 78 94 8a be a7 d6 dc bd 0f 15 96 be
       0.43732676 -0.27066398 -0.10783129 -0.2931294
000020 8e b1 68 be 63 57 39 be 0c 6f dd bc f6 b5 81 bd
       -0.22723982 -0.18099742 -0.02703049 -0.063335344
000030 b0 1e 10 bf 6a ac 81 3d cc f1 af be 57 4e 08 be
       -0.56296825 0.063317135 -0.34364164 -0.13311134
000040 a6 59 c8 3d 08 92 3c bd 7c a6 0e bf f0 93 57 bd
       0.09782724 -0.046037704 -0.55722785 -0.05263132
000050 7f c8 81 bc 9c c1 c6 be 91 42 74 3d bb c1 86 3d
       -0.015842674 -0.38819587 0.059633795 0.0657992
000060 ba 33 a3 be 53 2c 45 be 02 cc ca bd f0 6e 07 be
       -0.31875402 -0.1925519 -0.09902193 -0.13225913
000070 96 d4 d9 be 31 b8 72 3d 31 54 04 3d 35 81 2f bd
       -0.42545003 0.05925769 0.032306854 -0.04284783
000080 c9 9d 7f be f4 52 40 bd 82 63 39 bd 5e 5d cc bd
       -0.24962534 -0.04695411 -0.045260914 -0.09978746
000090 76 11 1f 3e 74 f6 cf bd dd ce 90 be f9 7b eb bd
       0.15534005 -0.10154429 -0.28282824 -0.11498255
0000a0 c6 ae 60 bd 25 42 e8 3a a1 87 a6 3d 8a c4 51 3e
       -0.054854177 0.0017719908 0.08131338 0.2048513
0000b0 0c e3 1e be 82 6c 05 be 4f f3 3c be ff a3 da be
       -0.15516299 -0.13029674 -0.1845219 -0.42703244

gcns.2.proj.weight f4 [64, 48]
000000 4a 7c 4c 3e e3 22 cd 3c 36 9f ad 3c cd 3f 97 3d
       0.19969288 0.02504105 0.021194082 0.07385216
000010 2e 9a cc 3d a6 fc 68 3e ff 8c 4f be a3 bf fb 3d
       0.09990345 0.22752628 -0.2026863 0.12292411
000020 d7 d2 17 3e 16 fb 63 be 42 09 02 bd 10 42 2d be
       0.14826523 -0.2226375 -0.03174711 -0.16919732
000030 f8 33 be be 5b 65 a7 bd ce 9c 05 be 60 ea 39 be
       -0.37149024 -0.08173629 -0.13048097 -0.18155813
000040 4c 7b 3f bd dc d8 0a 3e d0 53 a1 be 7d 3d fe 3d
       -0.046748444 0.13559288 -0.31509256 0.12414072
000050 68 f8 10 3e 7f 5f 0d 3e 7b 65 b1 bd 36 70 be bc
       0.1415726 0.1380596 -0.08661934 -0.023246866
000060 da 91 fb be a3 1c 0a be 8a d7 f3 bd a0 c3 15 3e
       -0.49134713 -0.13487487 -0.11906345 0.14625406
000070 09 32 3b bd 37 35 1f bd 7b bd 3c be 62 e4 0b 3e
       -0.045702014 -0.03886911 -0.18431656 0.1366134
000080 b3 6a 34 be 43 49 46 be 23 4b 2b 3c ca 30 76 be
       -0.17618828 -0.19363885 0.010454926 -0.24042049
000090 19 fc c3 3d c2 c1 2d bd cf 5a d8 bb 68 a0 03 3e
       0.09569568 -0.04242111 -0.006602622 0.12854159
0000a0 a5 f4 ca 3d 2f 52 8e be 75 30 65 bb fa b2 38 3c
       0.099099435 -0.27797076 -0.003497151 0.01127314
0000b0 f1 ac 89 bd ec d9 fb 39 ca 5a af bd 95 88 75 3d
       -0.06722439 0.00048036815 -0.085622385 0.059944708
0000c0 69 f9 c3 bf 81 f8 b4 bd 74 3c c7 bf 46 5d 9e bd
       -1.5310489 -0.08836461 -1.5565324 -0.07732634
0000d0 a0 6e 8c 3e a8 26 a1 bf f6 84 67 be 79 10 31 bf
       0.2742815 -1.2589922 -0.22609314 -0.6916576
0000e0 b1 f1 92 c0 9c ac 5f bf 22 ab 06 be 5c bc 0a 3e
       -4.5920033 -0.87372756 -0.1315122 0.13548416
0000f0 1d e3 de 3e a3 55 43 3f cc cb 57 3e 4e d4 0b c0
       0.4353265 0.76302546 0.21073836 -2.184833
000100 2c 94 77 bd 8b d4 96 c0 2a 0d 14 be df 7f d4 bd
       -0.060444042 -4.713445 -0.14458147 -0.10375952
000110 53 47 14 bb a2 e2 b4 bf 88 75 87 3e cc c5 54 3f
       -0.002262552 -1.4131663 0.26456857 0.83114314
000120 49 ae b9 be 5e 6b 11 3e 93 5c 2b bf ed 14 0c 3f
       -0.36265782 0.14201114 -0.6693813 0.5471943
000130 14 ae dd bc 18 b3 66 c0 89 7e 7a c0 00 d2 96 3d
       -0.027060546 -3.604681 -3.913973 0.07364273
000140 a2 8b a5 bf 8a 11 4f 3e 5c 69 d6 bd 0a 89 a3 bf
       -1.2933238 0.20221534 -0.104693145 -1.2776196
000150 63 5b b6 3e 5f 04 cc 3c 42 7f 27 3f af 4f a7 3e
       0.35616598 0.024904428 0.65428555 0.3267798
000160 c5 66 ba bd 72 3e c7 3c 64 11 e5 bc e3 17 46 3e
       -0.09101633 0.024321768 -0.027962394 0.1934505
000170 5e 71 ce 3d 73 a7 b6 3e 41 b9 34 bf 37 f4 20 3d
       0.10080217 0.3567463 -0.70595175 0.0392954
000180 18 d4 0d c0 38 36 3b 3e 5b 13 55 bf 92 52 3d bf
       -2.2160702 0.18282402 -0.8323266 -0.7395412
000190 97 77 28 3f c5 07 15 bf 30 09 d7 bd 80 71 b5 3d
       0.6580748 -0.5821498 -0.10499799 0.08859539
0001a0 d5 38 98 c0 51 fd 6c bf c4 1c a1 3d 05 d8 1b 3b
       -4.7569375 -0.9257403 0.07866815 0.002377988
0001b0 f5 d5 6e be f3 e9 e2 be 70 28 80 bf 0f 8c 9c bf
       -0.23323806 -0.44319114 -1.001234 -1.2230242
0001c0 04 a9 15 3e 3a 34 a2 c0 2c 07 af bc 74 8c 17 3d
       0.14615256 -5.0688753 -0.021365725 0.03699918
0001d0 88 57 b5 bd f1 ed 55 bf 71 49 2a 3f 31 45 46 3f
       -0.08854586 -0.83566195 0.6651831 0.7744933
0001e0 02 9b 74 bc 7b 07 19 bd f0 0a e5 3d 31 8e 2e 3f
       -0.014929535 -0.03736065 0.11183727 0.68185717
0001f0 2f f1 70 3e af bd 92 c0 53 80 8e c0 c4 52 5d be
       0.23529504 -4.5856547 -4.4531646 -0.21613604
000200 05 5b 09 bf 30 fc 33 be 92 1d 64 be 5a 0d 23 bf
       -0.5365451 -0.1757667 -0.22276905 -0.6369225
000210 25 5a 28 3f c7 31 02 3e 2a 0b 2b bf 8b 02 f1 be
       0.6576255 0.12714301 -0.6681391 -0.47072253
000220 aa a0 e8 bd cd 85 c4 3d 5a 70 d8 bc ad 69 5f 3f
       -0.11358769 0.09595833 -0.02642076 0.87270623
000230 cd 06 43 3c 5d 57 f0 3e 51 a9 98 be 8d e9 8b 3e
       0.011903477 0.46941653 -0.29816678 0.27326623
000240 8d d8 ad 3f 07 6c b7 bc c6 f0 62 3c ce b4 e7 3e
       1.3581711 -0.022390379 0.01385135 0.4525513
000250 f1 6c be 3f a1 ff 08 be 3b d2 e7 3c 09 36 cd be
       1.4876996 -0.13378765 0.028298488 -0.40080288
000260 bf 7f da bc 68 bd 22 3f d4 53 29 bd 92 cb bf 3d
       -0.026672242 0.6357026 -0.04133971 0.09365
000270 b3 e8 e2 bd db 7e 86 3f f1 65 c4 be 46 e7 97 3f
       -0.1107954 1.0507463 -0.38359025 1.1867454
000280 ba b5 0c c0 7e 7b 87 be 83 a3 c2 3d 0e 28 72 c0
       -2.1985917 -0.26461405 0.09503844 -3.7836947
000290 30 d7 37 3e a0 69 96 be 99 b0 0f be b8 f1 a9 3f
       0.17953181 -0.2937746 -0.1403221 1.3276892
0002a0 16 a2 1a bd d8 6b bd bf fd 4b b7 bd 02 52 3a 3e
       -0.037752233 -1.4798536 -0.089500405 0.18195346
0002b0 b2 ee 1e be 68 1a 00 bd 42 2d 30 3e 95 70 21 3e
       -0.15520743 -0.031275183 0.17204764 0.15765603
0002c0 31 a9 d9 3e f3 97 1a 3e cd c8 22 3e 5c 86 89 be
       0.42511895 0.15097027 0.15896912 -0.2686032
0002d0 58 bb 97 3e ec 2c 45 3f b0 03 2c be f8 28 de 3d
       0.2963512 0.7702167 -0.16798282 0.10847658
0002e0 a9 32 f4 3d 86 bb 86 3e d1 5d 99 bc d2 4f bb bd
       0.11923725 0.26314944 -0.018721493 -0.09146084
0002f0 33 a6 7b bf db b2 fa 3d d3 05 19 3e 15 78 a9 be
       -0.98300475 0.12241145 0.14943628 -0.33099428
000300 1f 16 e0 bf 3c 79 4d 3e 85 05 dc bf ab 69 89 bf
       -1.7506751 0.20065778 -1.7189184 -1.0735372
000310 27 7d bd bd 01 2e ed bf 02 f1 4d 3e 7e c5 19 bf
       -0.092523865 -1.8529664 0.20111468 -0.60066974
000320 8c b5 80 c0 97 79 ae bf c0 45 6a 3e 80 93 c0 3b
       -4.0221615 -1.3630856 0.2287817 0.0058769584
000330 ea 17 3e 3d 44 37 99 3e ed 7d 95 bd a5 70 30 c0
       0.046409525 0.29924977 -0.07299409 -2.7568753
000340 c5 20 b5 3e e5 6c 73 c0 c5 ca 59 be f3 29 c6 3e
       0.35376564 -3.8035214 -0.21268757 0.3870388
000350 40 30 5b 3c 30 48 6d bf ed f0 a2 3e fe b2 cf 3f
       0.013378203 -0.92688274 0.31824437 1.6226499
000360 a9 d1 25 c0 6e b7 c3 3d 60 bb 73 bf 17 0c e4 3e
       -2.5909216 0.09556471 -0.95207787 0.44540474
000370 97 da 94 3e 30 d9 35 c0 eb 35 30 c0 d7 d1 6e 3c
       0.2907302 -2.841381 -2.753291 0.014576397
000380 e3 d2 fc bf af 2b a5 be 56 6e 5f bd 48 d8 fc bf
       -1.9751858 -0.3225989 -0.054548584 -1.9753504
000390 04 ae dc 3d 6e 79 2d be e0 09 2c 3f 59 ef 12 bd
       0.10775378 -0.16940853 0.6720257 -0.03587279
0003a0 09 9c 70 be 3c ff 04 bf 0c bf 86 bd 99 83 c7 3e
       -0.23497023 -0.51951957 -0.06579408 0.3896759
0003b0 e8 3c 0f 3e 4c 1e 3a be 21 2e bf be 97 f4 b4 3d
       0.13988078 -0.1817562 -0.3733988 0.08835714
0003c0 fe 64 6f 3c b9 b6 4f be 85 cc 67 3e 7a 41 84 be
       0.014611481 -0.20284547 0.22636612 -0.25831205
0003d0 c3 0a a7 bf 29 3d 8e 3d 24 d9 ea bf b3 e2 c9 be
       -1.3050159 0.06945259 -1.8347516 -0.3943077
0003e0 96 4d 9f bf 45 98 8f bc 90 52 02 bd 0c a7 b1 bd
       -1.2445552 -0.017528662 -0.03181702 -0.0867444
0003f0 a1 82 5d bd 6a a0 a9 bf d2 9e a1 be e9 ec 34 bf
       -0.054079656 -1.325208 -0.31566483 -0.70673996

gcns.2.proj.bias f4 [64]
000000 f7 fd ca bd 37 d8 53 3e 84 f0 45 3e 0d 7e 91 be
       -0.09911721 0.20687948 0.1933003 -0.28416482
000010 eb 4a 8d 3e 63 9b 4f 3d 15 4c 19 bd 0e a1 4c 3d
       0.2759622 0.050685298 -0.037426073 0.04995828
000020 6d 96 a7 bd ec 07 6e bd f5 cb 26 3d bd c7 05 be
       -0.08182988 -0.058113024 0.040721852 -0.13064475
000030 cb ee a8 be d8 9e cd 3d 63 a5 43 3d 4a 72 f1 bd
       -0.32994685 0.10040063 0.047765147 -0.11789377
000040 98 03 8e 3d 74 c6 80 bc 44 7a 75 3d 3a 75 6b 3d
       0.06934279 -0.01571963 0.059931055 0.057484843
000050 22 77 26 be 54 08 8c 3e 7b 6f 09 bf 4b 65 79 be
       -0.16256383 0.27350104 -0.5368573 -0.24355046
000060 a8 c6 84 bd d7 6c f5 bd 59 fb 39 3f 2f 9f 15 bc
       -0.06483203 -0.1198365 0.7264915 -0.009132191
000070 d2 13 de be 8a 5e e8 bd 3f ae 2a 3e f5 4e 2f be
       -0.43374497 -0.11346157 0.16668032 -0.17119963
000080 f4 98 f0 be b0 62 ad 3d f8 14 d1 3e 40 26 cf 3e
       -0.46991694 0.08466089 0.4083631 0.4045887
000090 d0 6b d0 3c ab 35 0b 3e 7a 9b 49 bd b7 da b6 3d
       0.025442034 0.13594691 -0.04922054 0.08928435
0000a0 46 c9 fa be e3 fd 8c bd c8 b1 1a 3e 7a f2 3b bd
       -0.48981684 -0.068843625 0.1510688 -0.04588554
0000b0 9c 50 f6 be 0c 95 24 be 4e d6 d1 bd a1 63 c1 be
       -0.48108375 -0.16072482 -0.102459535 -0.37771323
0000c0 f7 3d 1c be f5 98 c2 bc 08 d9 0f be 83 0e 1d 3e
       -0.15258013 -0.023754576 -0.14047635 0.15337567
0000d0 71 a4 51 bd c9 db 96 be 40 bb cc be 19 90 c1 bd
       -0.051182214 -0.29464558 -0.3998661 -0.094513126
0000e0 4f 84 41 be f8 86 1d bd a5 d6 83 3e 9b 5d 86 3d
       -0.18898128 -0.038458794 0.25749698 0.065608226
0000f0 75 d5 43 3e ff 10 09 bf 8c ca 34 be e8 ef df be
       0.19124396 -0.5354156 -0.1765539 -0.4373772

h1_weights.weight f4 [32, 64]
000000 a1 81 47 be b4 0a b2 3e ca 8d a0 3e da c8 04 3e
       -0.19483043 0.3477379 0.31358176 0.12967244
000010 e3 2d 1a 3e 4c 19 a6 3d 8b 4d af bd 83 8e 2d be
       0.15056567 0.08110294 -0.08559712 -0.16948895
000020 69 9a 03 bf 3d 7e 12 bd 40 26 bd be ee d7 a7 bd
       -0.51407486 -0.03576492 -0.36943245 -0.08195482
000030 9f 58 eb bf d7 2a 33 40 91 fc 55 3d 9d 24 bf bf
       -1.838642 2.7994897 0.05224282 -1.4933048
000040 ef 63 03 c0 e2 d5 e2 bd b5 08 c9 bf 1c 19 34 c0
       -2.0529745 -0.11075951 -1.5705782 -2.8140326
000050 e4 9b e6 bd e2 65 d0 3b 17 6d 54 3e 1e 5e e6 3d
       -0.112602025 0.0063598016 0.2074474 0.1124842
000060 cc 35 2b bf 70 0f 50 3d 3b f7 85 be 37 58 6e 3d
       -0.6687896 0.050795972 -0.26165184 0.058189597
000070 68 29 db 3d dd 92 07 bf cc c4 fc 3d 49 e0 e3 3d
       0.10701257 -0.5295847 0.123422235 0.111267634
000080 d4 33 d2 3c ef 71 98 bd 82 3e 0d 40 bb 18 bd be
       0.02565948 -0.07443606 2.2069402 -0.3693293
000090 46 7b d0 bf bd 49 01 bd ec e1 6d bd 6c fb 9f bf
       -1.628762 -0.031564463 -0.058076784 -1.2498603
0000a0 92 30 80 be 14 7b 49 bf 25 12 14 bf ab 7a 3a 3e
       -0.25037056 -0.7870343 -0.57840186 0.18210857
0000b0 f3 f7 ab be 2c 89 ea bf db 42 be bd 70 b3 08 3d
       -0.33587608 -1.8323112 -0.092900954 0.03337425
0000c0 e5 fe 0d c0 5b ba 95 3e 48 45 ca bf 28 72 d4 3e
       -2.2186825 0.2924374 -1.5802393 0.41493344
0000d0 d8 43 85 3d ce 97 ff be 45 4f dc be 06 c3 92 3d
       0.06507081 -0.49920505 -0.43029228 0.07166104
0000e0 48 3f c7 3e 05 f8 e4 bf d5 7b a3 3c 19 9d f2 bf
       0.38915467 -1.788819 0.019956509 -1.8954192
0000f0 9b f0 a2 3e 93 a3 af bd 24 3b 0e 3f f1 2e 86 bd
       0.31824192 -0.08576121 0.5555899 -0.06551922
000100 ff 6c 54 3e 2b ff e4 3c 32 e6 c0 3d 38 a6 ab 3d
       0.20744704 0.027953705 0.09418906 0.08381313
000110 28 c2 8e be ba 62 84 be 8d 3b 88 3e e1 bb 46 3e
       -0.27882504 -0.25856572 0.26607934 0.19407608
000120 16 f9 d6 3c 9a e7 5b be b7 07 f8 3e 01 b4 0b bb
       0.02624182 -0.21475068 0.48443386 -0.0021317007
000130 7b 24 33 be 81 8a 26 40 5c cf 63 3e 39 37 4a be
       -0.17494385 2.6022036 0.2224707 -0.19747628
000140 13 42 51 3e 44 29 d9 bc 77 8d 13 bf 5e 70 29 c0
       0.20435362 -0.026508935 -0.57637733 -2.6474833
000150 e0 18 e8 bd dd b3 18 be 4a 74 85 bd a1 75 01 be
       -0.113328695 -0.14912362 -0.06516321 -0.12642528
000160 24 ff 8e 3e 83 8f b0 3d 7c e2 f9 3d c5 9a 4a 3d
       0.27929032 0.08621123 0.122014016 0.049464006
000170 41 9e 69 3e 5b c1 c6 3d b6 f4 6e 3a 66 60 85 3e
       0.22814275 0.097048484 0.0009115444 0.2605011
000180 01 cf 24 be 9a 4b 8e 3e ef f3 00 3f d1 be 05 3d
       -0.1609459 0.27792054 0.50372213 0.03265268
000190 49 0e 30 3d ff 95 48 3e d8 74 a6 3d 42 4d 61 be
       0.042982373 0.19588469 0.08127755 -0.22002128
0001a0 30 45 93 be ca 23 92 3d 87 50 57 bf 8e 0a 1b be
       -0.28763723 0.071357325 -0.8410725 -0.15140745
0001b0 41 44 64 be b7 f2 11 3e 02 41 80 3e 65 f6 3d 3c
       -0.22291662 0.14252745 0.25049597 0.01159439
0001c0 99 e6 05 bf 9f f3 ae 3e 72 42 0d bf eb 30 65 3f
       -0.5230499 0.34170243 -0.5517951 0.8952777
0001d0 fc d2 64 bd 86 45 3e be 2a c7 80 ba 2f 46 ed bd
       -0.055865273 -0.18581209 -0.000982498 -0.11585652
0001e0 0e ef 90 3f 9b e8 c1 be f2 3f 8f be 68 ed 03 bf
       1.1322954 -0.37872776 -0.27978474 -0.5153413
0001f0 cf 0b 48 be 3f 09 01 3e 37 9e 51 3e e9 8b b0 bd
       -0.19535755 0.12601183 0.2047051 -0.08620436
000200 a0 78 b8 3d a4 47 26 3e 8b 06 5c be 1e 06 b5 3e
       0.090073824 0.16238266 -0.21486871 0.3535623
000210 43 61 8b bd 03 bd 48 3f 75 cc 2f 3e 61 dd 0f 3e
       -0.068056606 0.7841341 0.17167838 0.14049293
000220 c3 38 90 bc d4 c7 ee bd 56 1d 43 3e 26 9a 46 bd
       -0.017605191 -0.11659208 0.1905416 -0.04848685
000230 cc f8 a6 3f ca d8 19 c0 e4 50 00 bf 33 9d 88 3e
       1.3044677 -2.4038568 -0.5012343 0.26682433
000240 0e 54 f7 3e 71 d9 24 be 95 1c 13 3e ea fc 1a 40
       0.48306316 -0.16098572 0.14366372 2.4216866
000250 cf 7f 01 3e 52 27 ce 3c a8 09 e1 3e f5 cd 9f 3e
       0.12646411 0.025165234 0.4395268 0.3121182
000260 79 8f 88 3e 81 58 a7 3e 13 1e 90 3e f2 b6 3c 3e
       0.2667196 0.3268471 0.28147945 0.18429163
000270 0a 0c 35 3e b2 13 9f bd 93 69 94 be be 2a b6 3e
       0.17680374 -0.077674285 -0.28986797 0.35579485
000280 61 ee f4 3d 95 8e 2b 3e fc f4 dd bf 88 38 28 3f
       0.1195953 0.1675361 -1.7340388 0.6571126
000290 77 cc 98 bd d9 f3 d2 3c c5 39 06 be 76 43 2a 3f
       -0.074608736 0.025751041 -0.13107975 0.6650919
0002a0 c2 1a 8d 3e 06 7d 26 3e 4b 9e 0c 40 46 38 fe 3d
       0.27559477 0.1625863 2.1971614 0.12413077
0002b0 34 ca 0a be 86 49 c5 3e ec ca 0e 3d 6c 85 16 3e
       -0.13553697 0.38532656 0.03486149 0.14699334
0002c0 c7 0c 5c 3f 6e 40 dd 3e e5 f6 92 3f 29 93 a2 bf
       0.85956997 0.43213218 1.1481596 -1.270116
0002d0 17 d4 50 3e 7d c0 24 3f ac 49 41 3e 51 8b d7 3c
       0.20393406 0.64356214 0.1887576 0.026311548
0002e0 64 a7 93 bf d4 cf 45 3f c6 0e 9c 3e 94 db 77 3f
       -1.1535459 0.77270246 0.3048002 0.96819425
0002f0 4e 8c 35 be 4d 82 8a 3e 9e 6a c0 be 81 aa 1b 3e
       -0.17729303 0.27052537 -0.37581342 0.15201761
000300 17 3b d9 bd 9a d4 38 3e 22 4d a5 3d 55 75 c4 bd
       -0.106069736 0.18049851 0.080713525 -0.09592692
000310 71 35 07 3f 61 9b df bd b0 ce b2 bf 44 3f ed bf
       0.5281592 -0.10918308 -1.3969326 -1.8534932
000320 8e c9 af bf 6e 27 f6 bd 95 25 f6 bf c2 ac 46 bd
       -1.3733385 -0.12019239 -1.9230219 -0.0485046
000330 0b 6f bd 3f 6c fa 73 c0 82 1b 36 bf da f5 d9 3e
       1.4799513 -3.8121595 -0.71135724 0.42570382
000340 5d 8f 34 3f 68 a2 3f bd ac 4d 03 40 35 2b 64 40
       0.70531255 -0.046785742 2.0516157 3.5651371
000350 b3 83 e3 3d 44 4c 72 3e b9 e4 b8 be 0a bb 09 bf
       0.11109104 0.23661906 -0.36112002 -0.53801024
000360 f1 ec f0 bf 39 6d 5a bf 57 c0 e3 bf eb 8a 24 3e
       -1.8822309 -0.8532291 -1.7793072 0.16068618
000370 62 6c 50 bd e8 d6 1d c0 7d fb 28 be d9 cc 87 bf
       -0.050884612 -2.4662418 -0.16502185 -1.060939
000380 d8 e6 5b 3e 1e 97 c9 bf 88 df 8b bf 8b 3e db bf
       0.21474779 -1.5749242 -1.0927591 -1.7128462
000390 c5 6c 4f 3f 6b 05 dd bf b1 a1 8a be 5d cc 90 be
       0.81025344 -1.7267278 -0.27076486 -0.28280917
0003a0 06 cf 98 3e 88 d5 73 bf 50 52 02 3f b2 5f 06 be
       0.29845446 -0.952477 0.5090685 -0.13122442
0003b0 ce e2 f0 3e cf 4b 80 3e d5 6d d5 3e 9f 2c 0c bf
       0.47048038 0.25057837 0.41685358 -0.54755586
0003c0 d9 a6 99 3f 27 65 69 bf 8f bd 16 3f f4 14 00 c0
       1.2004043 -0.9116997 0.58882993 -2.0012789
0003d0 fb 0a 14 3e bd 1d 36 3f 15 9f c9 3e 55 40 44 bd
       0.14457314 0.71139127 0.39379182 -0.047912914
0003e0 32 35 b4 bf 44 93 68 3d 7a 7a 5f c0 d8 8e 79 3e
       -1.4078734 0.05678107 -3.4918504 0.24370897
0003f0 31 20 bf 3e ff 46 74 3e 62 4a b9 3c 0a 45 f3 3d
       0.37329248 0.23855208 0.022618476 0.118784025

h1_weights.bias f4 [32]
000000 41 fd 8f 3e 02 56 98 3d 0b e3 9a be d8 4f 2b 3e
       0.28122905 0.0743828 -0.30251345 0.16729677
000010 74 3b 7b be 94 91 c8 3d 77 1c 97 be 3c 56 bc be
       -0.24534398 0.09793392 -0.29513904 -0.36784542
000020 7f c8 9a be ee 24 63 be 15 40 83 be 88 b7 95 3d
       -0.3023109 -0.22182056 -0.25634828 0.073103964
000030 34 86 ad be e8 a8 ca be 41 41 9f be bf 78 98 be
       -0.3389145 -0.3958199 -0.31104472 -0.29779622
000040 3a c2 98 be 12 65 8f be 28 f0 89 bc 11 59 5b 3e
       -0.29835683 -0.28006798 -0.016838148 0.21420695
000050 d9 dd a1 3d 78 56 0b bc 95 0d 75 3c e3 e2 9a be
       0.07903642 -0.0085045025 0.0149568515 -0.30251226
000060 11 e6 51 be c4 e1 99 be 4c 22 60 3e 7d c0 91 be
       -0.2049792 -0.30055058 0.21888083 -0.2846717
000070 d5 e7 b3 3e 27 67 7d 3e 50 00 8f be 82 ec 55 3e
       0.3513781 0.24746381 -0.27929926 0.20891002

h2_weights.weight f4 [2, 32]
000000 a4 85 a1 3f 03 24 f2 bd 76 4a ca be c0 dc 9f bf
       1.2618909 -0.11823275 -0.39509934 -1.2489243
000010 71 5b 1b 3f bb 61 ec 3e 61 4e 08 bf df ce 07 bf
       0.60686404 0.46168312 -0.53244597 -0.53050035
000020 64 4e 32 3f d2 56 8c 3e 4d 45 32 3e 00 e1 2a be
       0.69650865 0.2740999 0.17409249 -0.16687393
000030 a9 e5 d3 be 8a 22 08 be 75 b1 65 be 18 d2 c0 bd
       -0.41386154 -0.13294426 -0.22430976 -0.09415072
000040 27 c3 07 bf b5 8e 13 3f 82 9f 73 be 72 96 51 3f
       -0.53032154 0.5763963 -0.23791316 0.81870186
000050 65 e2 4e bf 43 1e 00 3f 82 12 07 bf 7e 19 ed be
       -0.808142 0.50046176 -0.52762616 -0.46308511
000060 ee ad f9 3e be 17 0e bf 52 c8 98 bf cd e0 00 3f
       0.4876551 -0.5550498 -1.1936133 0.5034302
000070 fc 13 65 bf 5c e6 2c 3f 17 01 07 3f 69 0a 8a bf
       -0.8948362 0.67539 0.5273604 -1.0784427
000080 74 d1 0f bf 3b 48 00 be 5e 92 18 3f 1c 27 fb 3e
       -0.56178975 -0.12527554 0.5959834 0.49053276
000090 cc 12 13 bf 86 29 44 bf 4e 42 71 bd 37 49 ef bd
       -0.57450557 -0.7662586 -0.058901124 -0.116838865
0000a0 3e 82 52 be dd 40 89 be 4a 7d e3 be b0 89 2a be
       -0.20557496 -0.268073 -0.44431525 -0.16654086
0000b0 40 f7 8d 3d f5 be b6 3e e1 60 48 3e fd d6 0e 3f
       0.06931925 0.35692564 0.19568206 0.55796796
0000c0 e5 a8 83 3e c9 00 12 bf 71 64 78 be d8 eb 36 bf
       0.25714794 -0.5703245 -0.24257065 -0.7145362
0000d0 a2 72 5c 3f 9d 1d 28 bd 87 13 0f 3f ed b4 67 3f
       0.86112416 -0.041043866 0.5588917 0.90510446
0000e0 af 7b 98 be 60 75 0a 3e a9 94 56 3f bf f5 8f be
       -0.29781863 0.13521338 0.8382059 -0.28117177
0000f0 12 5c 52 3f 29 fe 6c bf 19 8d 10 bf c7 ad 2e 3f
       0.8217174 -0.9257532 -0.564653 0.68233913

h2_weights.bias f4 [2]
000000 ec 4a 3d 3e e2 4a 3d be
       0.18485612 -0.18485597
